Assets/Models/Sorter/Sorter14.onnx (onnx, 103268 bytes, 11 tensors)

action_model._discrete_distribution.branches.0.bias f4 [3]
000000 6f bc 2a 3c f3 f2 fc bb e4 4b 67 ba
       0.010420903 -0.0077193915 -0.0008823259

action_model._discrete_distribution.branches.0.weight f4 [3, 128]
000000 d1 c2 98 3c 93 9a 0f bc d3 c3 d0 3a b7 b4 71 3c
       0.018647583 -0.008764881 0.0015927501 0.014752558
000010 9e ad 2e bc c3 76 57 3c 82 04 ec 3b 31 64 32 bc
       -0.010661511 0.013150874 0.007202686 -0.010888145
000020 c3 fa 01 bb a4 59 07 bc 4f 83 97 3c 3f cd f8 ba
       -0.0019833304 -0.008261118 0.01849523 -0.0018982067
000030 09 00 35 bc aa f6 82 3c 29 8d e6 38 5e ca 2f 3c
       -0.011047372 0.01598676 0.00010993548 0.0107294
000040 21 05 8c 3b b6 85 ee bb e3 c0 9f bb a7 a2 54 bc
       0.0042730724 -0.007279123 -0.004875289 -0.0129782325
000050 c7 16 99 bb d8 a3 75 bc 3b 00 87 3b 7f 19 65 bb
       -0.0046719047 -0.014992677 0.0041199005 -0.0034957824
000060 f5 42 9b 3c 50 e1 cb bb e2 52 8b bb d5 8f 78 3c
       0.018952826 -0.0062219277 -0.0042518238 0.015171011
000070 11 df 2e bc b7 f8 31 3c b7 1e 3c 3c 6c 3a 35 bb
       -0.0106733 0.010862521 0.011481932 -0.002765323
000080 7f d9 4f bb c2 84 03 bc 94 23 96 3a 9a d8 a5 3c
       -0.003171533 -0.008027257 0.0011454695 0.020244885
000090 5c d8 03 bc 44 8e 0d 3c ce 5a 01 bc 26 0a a5 bc
       -0.00804719 0.008639876 -0.007895185 -0.02014644
0000a0 19 bf ca 3a 7a 64 c4 3b 65 b6 05 3b 22 e3 aa 3c
       0.0015468328 0.005993423 0.0020402905 0.020860258
0000b0 c4 68 b2 3a 96 5a ac bb a2 14 c2 3c f7 66 36 ba
       0.0013611545 -0.005259822 0.02369148 -0.0006958092
0000c0 8c 99 c3 bc ba 03 bb bc 24 d9 2c bb c5 29 1a bc
       -0.023876928 -0.022828925 -0.0026374543 -0.009409373
0000d0 ae f0 08 3c e6 3e 9a 3a 12 0e b4 3c 5f e4 5b bb
       0.008358164 0.0011768013 0.021979365 -0.0033552868
0000e0 a0 2d 8c 3b 12 12 5c bb fc 09 51 3c 8f 76 90 bc
       0.0042779 -0.0033580107 0.012758728 -0.017634658
0000f0 6c 86 1f bc 4e f9 4e 3c 09 27 2a bb d7 e7 3a bc
       -0.0097366385 0.012632681 -0.0025963208 -0.011407814
000100 0d a7 2f 3c 4a 0b 1f bb 51 00 8a 3b ca 1b a3 bb
       0.01072098 -0.0024268203 0.0042114635 -0.004977678
000110 d4 67 51 bc ed 6f 58 bc 01 3c 87 3c 3a a4 38 bc
       -0.012781102 -0.013210279 0.016508104 -0.011269623
000120 31 bc 33 3b 54 b6 18 3c 2c 01 58 3c b7 f9 23 3c
       0.0027425403 0.009320814 0.013183873 0.010008267
000130 f6 ee 0b 3c a7 cb 8b bc 1b ab e2 3b ee a9 4a 3c
       0.008540859 -0.017064882 0.00691737 0.012369616
000140 e6 95 da 3b e2 4d 37 3c 47 11 79 bc 9a 5f 86 3b
       0.0066707013 0.011188002 -0.015201873 0.004100752
000150 5a 92 ab 3c d2 96 53 ba b0 7d a8 3c 02 6c 90 3b
       0.02094381 -0.0008071485 0.020567745 0.004407407
000160 21 ac 90 3c 62 36 25 bc 96 46 97 3b b8 03 89 3b
       0.017660202 -0.010083767 0.004616569 0.0041813515
000170 90 df b0 3a 04 8e 88 bc e3 46 35 bc e2 8a 78 3c
       0.0013494361 -0.01666928 -0.011064264 0.015169831
000180 1c 44 5c bc 8c bb 7c bb 0b f1 1f bb 88 07 f3 bb
       -0.013443973 -0.0038563935 -0.0024405147 -0.0074166693
000190 d5 f1 1e bc 0c 43 09 bc 42 3b bf bb bd 09 c4 bc
       -0.009701212 -0.008377802 -0.0058359215 -0.023930425
0001a0 9b 8b f3 bb d0 81 47 3c da 62 5e bc 8b 1b b9 3c
       -0.0074324138 0.012176946 -0.013573373 0.022596141
0001b0 88 1c b5 bc b4 02 1e bc 8f eb e4 bb 54 2a 6d bb
       -0.022108331 -0.009644199 -0.0069860886 -0.003618856
0001c0 c8 6b e6 3b 4b d3 af 3b 3f 1a 06 3d 63 85 45 bc
       0.0070318915 0.0053657643 0.032739874 -0.012055728
0001d0 80 28 c4 ba 47 6a 09 3b 7a a2 95 bb b3 a9 51 bc
       -0.0014965683 0.0020967887 -0.004566488 -0.012796807
0001e0 7a 41 de 3c ab 35 09 bb 73 7e fd 3a 42 a4 5e 3c
       0.027130831 -0.002093653 0.0019340053 0.013588967
0001f0 a7 13 47 3c 3a 6b 93 3c fd 5d 73 3c df 8e 6d bc
       0.012150682 0.017995466 0.0148539515 -0.014499395
000200 23 74 e4 bb f7 65 f5 bb 8c 13 35 bc 2f 1b 0e bd
       -0.0069718524 -0.007488962 -0.011052024 -0.034693893
000210 e3 e5 c0 3b af 86 2b ba 0c 5b 35 3c f5 83 28 3b
       0.0058867796 -0.0006543202 0.011069071 0.0025713418
000220 9e 11 73 3c 85 8e 01 bc 50 a1 15 bb 58 78 90 3c
       0.014835743 -0.007907514 -0.0022831745 0.01763551
000230 4d e5 cd 3b 39 f1 08 ba 06 1f 50 3c a2 10 2a bc
       0.0062834383 -0.0005223933 0.012702709 -0.010379942
000240 ac f6 30 bb a4 36 27 ba b0 ef 2d bc af cc d1 3c
       -0.0027002497 -0.00063786865 -0.010616228 0.025610296
000250 f9 52 10 b8 53 88 de 3c 3d 01 a7 3c 17 94 69 3b
       -3.440955e-05 0.027164614 0.020386333 0.0035641247
000260 6c 67 6f bc e4 da b1 3a d1 23 43 3c ea 24 e0 bc
       -0.01461206 0.0013569263 0.011910395 -0.027361352
000270 06 af 70 bc 71 01 ce 3a e8 d2 47 3c 23 16 db ba
       -0.014690166 0.0015716982 0.01219628 -0.0016714971
000280 35 a9 1d 3c d4 01 12 3c 66 e6 42 bc 75 25 04 bb
       0.009622862 0.008911569 -0.011895752 -0.0020163928
000290 82 09 0d 3c d3 f7 43 bc 07 b1 99 ba 7e 20 54 bc
       0.008608224 -0.011960941 -0.0011725732 -0.0129472
0002a0 5b 6f 7b 3b 03 d3 9c bb 0a bd 48 3c d0 2f 18 bd
       0.0038365934 -0.0047858967 0.012252102 -0.037154973
0002b0 fc 1f 70 bc 18 23 10 3c 90 95 85 bb 46 09 8a bb
       -0.014656063 0.0087974295 -0.004076667 -0.0042125313
0002c0 6e cb 51 bb a0 9b 3c 3c ca f6 c9 3c e4 85 f8 bb
       -0.0032012123 0.011511713 0.024653811 -0.0075843204
0002d0 d1 8d 07 3b 54 90 8c bc 60 92 ba 39 59 22 be bc
       0.0020683894 -0.017158665 0.00035585742 -0.023209738
0002e0 28 2f 46 bc 18 57 c9 ba 84 27 05 bc 8c 07 13 3b
       -0.012096204 -0.0015361039 -0.008127097 0.0022434918
0002f0 ed ca b1 3c 12 08 05 bb 3c 87 5c 3c 5b 29 91 3c
       0.021703208 -0.0020299 0.013459977 0.017719915
000300 e5 33 9e bc 13 c3 51 3c fd 03 2f 3c d4 ec 36 3b
       -0.019311855 0.012802857 0.010682103 0.0027912157
000310 d9 71 21 3c ab b1 c8 3a 8f 4a 88 bc 9d 33 a5 ba
       0.009853804 0.0015311738 -0.016637115 -0.0012603883
000320 65 a8 2a bc 8f 53 80 3c 03 1d 61 bc 3f ae ee bb
       -0.010416125 0.015664844 -0.013739827 -0.0072839553
000330 dc fe 9a ba d4 37 4b 3b 33 9c cd 3b db bc ac bc
       -0.0011825222 0.0031008618 0.006274724 -0.021086147
000340 ec 4a b1 ba 71 37 97 3b 0b a8 69 bc 5d 80 eb bb
       -0.0013526357 0.0046147634 -0.014261256 -0.007186933
000350 d2 e0 33 bc 48 ff 10 3c d2 76 60 bc 44 46 8c 38
       -0.010978894 0.008849926 -0.013700204 6.688808e-05
000360 55 8c 57 bc 9f ca fd 3a cd d8 9e bc d8 8d 30 bb
       -0.013156016 0.0019362754 -0.019390488 -0.0026940014
000370 82 0d 83 3c 69 43 5f 3c a2 87 2f 3c 08 73 56 3c
       0.015997652 0.013626912 0.01071349 0.013088949
000380 14 c9 3d bb 4b c4 6c bb 2f d9 a6 3c 08 37 8e bb
       -0.0028958963 -0.0036127742 0.020367233 -0.0043400563
000390 3e 04 99 3c 08 37 e8 b9 6d 03 69 3b 79 10 c4 3c
       0.01867878 -0.0004429149 0.003555502 0.023933636
0003a0 a4 7a 11 3c 16 96 c0 3c 4c 18 86 3b 15 83 95 3c
       0.008879337 0.023509067 0.004092252 0.018250981
0003b0 28 88 8e 3c f5 21 22 3c 74 12 98 3c 3b c8 6e bb
       0.017398909 0.009895791 0.018563487 -0.0036435265
0003c0 28 3b 6b bb b0 8b f9 3a ea bd c9 3b 82 f4 67 3b
       -0.0035893414 0.0019038823 0.0061566727 0.003539354
0003d0 c8 fd b6 bb 4c f4 bb bb ae 92 77 3b 05 ce 0f 3c
       -0.0055844523 -0.0057359096 0.0037776637 0.008777146
0003e0 51 41 cc bc b5 49 b0 3b 2d 2f 5a 3b 12 b8 88 bb
       -0.024933489 0.0053798803 0.003329228 -0.0041723335
0003f0 45 2e 9c bb 54 70 32 bc f1 f5 09 bc 47 f6 52 bb
       -0.004766258 -0.010891039 -0.008420453 -0.003219025

action_model._discrete_distribution.branches.1.bias f4 [3]
000000 a6 44 63 3b 02 2c 0b 39 95 b2 1e ba
       0.0034678369 0.00013272467 -0.00060538325

action_model._discrete_distribution.branches.1.weight f4 [3, 128]
000000 71 b8 59 3c 80 16 06 bc 58 9f 8c bb 89 d6 1f 3b
       0.013288603 -0.008184075 -0.004291456 0.0024389348
000010 28 ee 1d bb b8 54 f7 3b ce fd 51 3c 97 7e 23 bb
       -0.002409825 0.007547941 0.012816859 -0.002494728
000020 85 51 44 bb 97 59 47 bc 9a a6 56 bb 37 cc e4 bb
       -0.0029955816 -0.012167356 -0.003275311 -0.006982352
000030 2e 5c 29 3b f2 43 9c 3b 64 97 f7 39 b5 8d c9 bb
       0.0025842297 0.004768842 0.00047224306 -0.006150926
000040 98 be a2 b9 ba 3b 6c 3b b0 be 81 bc 99 60 b9 3b
       -0.0003104105 0.0036046342 -0.015837997 0.0056572673
000050 09 9c 0e 3c 2a 5a aa bb ad c6 a3 3c c0 3b f7 3b
       0.008704194 -0.0051987367 0.019992197 0.0075449646
000060 ac 0d 21 3c a6 ec 9c 3b fb 08 19 3b 75 47 d3 3a
       0.00982992 0.004788953 0.00233513 0.0016119318
000070 38 13 fa bb 75 bc a9 3b 62 6f 2e bc 8b 11 04 bc
       -0.0076316856 0.0051799365 -0.010646673 -0.008060823
000080 b6 a5 4a 3b 43 8b 2d bc f2 66 f2 bb 68 6f e1 38
       0.0030921525 -0.010592285 -0.007397526 0.00010749587
000090 69 47 eb 3a 75 1b 20 3c 7d 37 92 3c fd 9c fb 3b
       0.0017950359 0.009772171 0.017848724 0.0076786266
0000a0 93 1c 41 3c e5 72 b8 3b 03 a6 a9 38 21 0d 42 3c
       0.011786598 0.005628931 8.08947e-05 0.0118439505
0000b0 6f ce 0b 3b 96 98 ad 3b bf 2c 8c ba c5 3d f8 3b
       0.002133276 0.0052977307 -0.0010694488 0.007575723
0000c0 fb bd 97 3a 09 2a 47 3c 9b 48 15 3a bb aa e7 38
       0.0011577004 0.012156018 0.0005694718 0.000110467394
0000d0 ff 6e 77 3c d1 84 3e 3c a7 8e 81 3c 29 e1 32 bb
       0.015102147 0.011628346 0.015815092 -0.002729485
0000e0 0e 7c b1 3c a0 10 b2 bb 3f c7 41 3c c3 b7 3c 3c
       0.0216656 -0.0054341108 0.011827289 0.011518422
0000f0 b8 9a 75 bc 31 f1 06 bb bc fa 81 bc e0 c6 de ba
       -0.014990501 -0.0020590539 -0.01586663 -0.0016996525
000100 d4 2e 39 3b 45 89 56 bb d0 47 46 bc f7 c4 74 3b
       0.0028256672 -0.0032735628 -0.012102082 0.0037348846
000110 ee 79 33 bc c3 cd 89 3b c3 07 f7 b9 66 ea 86 bb
       -0.010954363 0.004205437 -0.00047117294 -0.004117298
000120 d2 89 04 3b 02 a3 d9 3b 86 6a d3 3b 6c 38 4c bb
       0.002022375 0.0066417465 0.0064519076 -0.003116156
000130 7b 5f 72 3b 0b c2 dd bb bb df bd 39 2b e6 96 3b
       0.003698318 -0.0067675165 0.0003621558 0.004605075
000140 42 21 09 3c 65 0d 4f 3a 93 9f 00 bc 2a 19 a9 bb
       0.008369746 0.0007898419 -0.007850545 -0.0051604705
000150 dc 1e 1d 3b 32 1d ad 3a 9e 5a 1a 3b aa 0e 01 bc
       0.0023974692 0.0013207553 0.0023552547 -0.007877031
000160 92 54 ce 3b e0 cc 01 3c 54 a1 21 bb 7a ba 1e 3c
       0.0062967027 0.007922381 -0.002466281 0.009688014
000170 81 24 55 3b 6c b9 29 3c f1 67 14 bc ba 26 35 3c
       0.0032522979 0.010359149 -0.009057985 0.011056596
000180 83 22 df ba 7d aa 58 3b 77 29 b7 bb d4 e4 0c 3c
       -0.0017023835 0.0033060603 -0.00558966 0.008599479
000190 2b ab 28 bc ac 5b 07 3c a5 5c ae bc cd 3c 8f b9
       -0.010294716 0.008261602 -0.02128441 -0.00027320386
0001a0 29 bb a6 bb 95 be 99 3c a8 e6 de 38 50 4d 18 3c
       -0.005088229 0.018767634 0.00010628748 0.0092957765
0001b0 53 15 22 ba 20 19 4c bc ef 8f da bb f9 10 b5 3b
       -0.0006182987 -0.012457162 -0.0066699903 0.005525705
0001c0 c0 b1 8a bb d9 8c 22 3c 1c 57 92 3c af 0b ca bb
       -0.004232615 0.009921276 0.017863803 -0.0061659436
0001d0 f9 13 c3 bb 8f 69 95 bb ca c1 7f ba 4e 6f 10 3c
       -0.0059533087 -0.0045597027 -0.0009756355 0.0088156
0001e0 b3 7f 8f bb a2 45 c1 bb bc f6 03 bb b5 6c 7c bb
       -0.0043792366 -0.0058981935 -0.0020136079 -0.0038516943
0001f0 e3 49 d5 bb 23 83 dd 3b 4a 13 23 3c b8 92 0a 3c
       -0.006509052 0.0067600175 0.009953329 0.008457832
000200 61 6b a1 3c 09 ce d9 bc d4 26 a1 38 bf 5b bd 3b
       0.019704523 -0.026587503 7.6843105e-05 0.0057787593
000210 5a 54 5e bc 89 3d 6c 3c e2 ce 08 3c b7 f8 36 bc
       -0.013569916 0.014418968 0.008350106 -0.011167697
000220 c7 df 1d 3b ee 4f 49 3b fd a9 b1 39 c8 13 73 bb
       0.002408968 0.0030717808 0.00033886722 -0.0037090648
000230 1c b7 34 bc 90 56 04 3c 6e 07 1d 3b c8 9b 9d ba
       -0.011029985 0.008077279 0.0023960727 -0.0012024576
000240 cd 6f da bb 51 47 17 3b 83 bc 96 3b 93 01 6b bc
       -0.0066661597 0.002308328 0.004600109 -0.014343637
000250 ac 6c 03 3c 64 62 07 3c a4 8d 8b bb cc 24 65 3c
       0.008021515 0.008263204 -0.0042588282 0.013985824
000260 c3 18 00 3c eb 80 53 3c d9 45 0a b7 7b b7 8b 3b
       0.007818404 0.012909154 -8.241704e-06 0.004263816
000270 cb 04 5f 3b 80 3c 24 3b 6f b0 6d bc 2f 88 13 bb
       0.0034029956 0.0025060475 -0.014507397 -0.0022511592
000280 fb c7 5c bc ef 49 32 3c df 88 f8 b9 92 4f 30 3b
       -0.013475413 0.010881885 -0.00047404223 0.0026902896
000290 62 93 3a 3c 37 ad 54 bb e7 2f 33 bc dc 1b 9a bc
       0.011387678 -0.0032451877 -0.010936714 -0.018812113
0002a0 29 9f 2b 3c 4b 95 3f bb 40 c0 a1 bb 96 a4 f8 3a
       0.010474958 -0.0029233273 -0.004936248 0.0018969949
0002b0 e4 4b 7d bc 3e 8a 0a bb 5b 6a fe bb f5 70 50 3b
       -0.015459988 -0.0021139528 -0.0077641434 0.003180561
0002c0 62 d8 f4 3a b3 22 0c 3a d5 b7 f3 ba 47 2e 89 ba
       0.001868021 0.0005345747 -0.0018594215 -0.0010466062
0002d0 73 96 26 3a 30 e8 5d 3c c1 6b 0b 3b 00 23 00 bc
       0.0006354816 0.013544127 0.0021273943 -0.007820845
0002e0 4e 4c 49 bc bf c5 db bb 51 0f 92 bc 90 db e6 3b
       -0.012286259 -0.006706923 -0.017829569 0.007045217
0002f0 8c 20 cd bb c4 43 6b 3b 76 8b 85 3b 83 af fc ba
       -0.0062599834 0.0035898546 0.004075463 -0.0019278381
000300 53 b9 07 bc bb 2a 89 3a 33 d6 41 ba 29 3d 82 bc
       -0.008283931 0.0010465005 -0.0007394284 -0.015898304
000310 ec c1 ac 3b da aa f3 bc 23 3a 82 bb 15 d7 7c bb
       0.0052721407 -0.029744554 -0.0039742156 -0.0038580347
000320 31 a4 61 3b d5 6d 0d bc 63 b1 8d bb aa ee 9f 3c
       0.003443014 -0.008632143 -0.0043241247 0.019522984
000330 ee bd 13 bc 86 d9 93 bc ea 5c 02 bc 45 e4 81 3c
       -0.009017451 -0.01804806 -0.007956723 0.015855918
000340 25 c2 65 3b 04 57 d5 bb 13 93 d0 bb 89 d2 88 bc
       0.0035058346 -0.006510617 -0.006365189 -0.016701953
000350 61 e8 66 bb dc f3 50 bb 76 fd 58 3a 41 ca f5 3b
       -0.0035233723 -0.0031883633 0.0008277515 0.007500917
000360 ae 1b a7 ba a5 0f 9d ba e7 c9 51 3c 6f 2a 1b 3a
       -0.0012749338 -0.0011982812 0.012804485 0.0005919104
000370 cd f8 17 3c 67 ec 93 3c 27 f1 4f bb 83 26 bb bc
       0.009275627 0.018057061 -0.0031729431 -0.022845512
000380 c4 1d 84 bb f7 38 85 3b 23 cd 6b bb 5a bf 40 bc
       -0.0040318687 0.0040656286 -0.0035980425 -0.011764372
000390 69 e8 87 3b 39 92 5f bc f5 53 e8 bb 03 82 33 3c
       0.0041475785 -0.013645702 -0.0070900866 0.01095629
0003a0 42 30 8c bc d8 4d 34 bc df 79 ca bb 6b 9f 84 3c
       -0.017112855 -0.0110048875 -0.006179079 0.016189298
0003b0 6f 24 59 bc d2 9e ca 3c 6c 29 66 ba 4f c3 27 bb
       -0.013253315 0.024733935 -0.0008779976 -0.002559859
0003c0 e0 e9 27 bb ae db 09 3c 66 17 21 3c 17 98 93 3b
       -0.0025621578 0.008414192 0.009832239 0.0045042145
0003d0 07 65 ca 3b bb ed 28 bc c0 01 c3 3a 7e fd 4a 3c
       0.006176594 -0.010310586 0.0014877841 0.012389539
0003e0 1d 36 b4 3c 75 90 da b9 d6 f8 25 bb 52 36 37 3b
       0.02199846 -0.0004168783 -0.002532532 0.0027955961
0003f0 16 e8 0c bc 12 59 1b bc 0e 68 cb 3a bd 15 46 3b
       -0.0086002555 -0.009481685 0.0015518682 0.003022536

action_model._discrete_distribution.branches.2.bias f4 [2]
000000 45 5a 14 3d 8b 59 14 bd
       0.0362189 -0.036218207

action_model._discrete_distribution.branches.2.weight f4 [2, 128]
000000 55 1b 54 bc 7d 4f 0d bd 37 e4 04 bd a6 0a 4a bc
       -0.01294597 -0.034499634 -0.032444205 -0.01233164
000010 59 f8 21 bd 68 db c8 3c a6 9e ba bc 36 55 1c bd
       -0.039543483 0.024518684 -0.022780728 -0.0381672
000020 20 61 e5 ba 77 46 ba 3c 3f 9a 38 3b 41 8a 0b bd
       -0.0017500259 0.022738678 0.002816811 -0.034067396
000030 45 36 be 3a 69 16 cd 3c f7 86 c8 bc d2 06 4d 3c
       0.0014512023 0.0250351 -0.024478419 0.012513833
000040 67 d3 ca 3c 21 c9 0f bd 2d 04 25 bd 58 2b 62 bb
       0.024759008 -0.03510392 -0.040287185 -0.0034510698
000050 0d 1b 53 3d c6 93 1d 3a 40 ae 81 3c d0 9e 11 bd
       0.05153947 0.00060110947 0.01583016 -0.035551846
000060 b0 a6 20 3d a7 39 12 bd b9 18 37 bd 39 4c e0 3c
       0.039221466 -0.035699513 -0.04470131 0.027380096
000070 8f 7f f1 bc 62 f1 20 3d 57 f6 80 bc 77 b1 71 3d
       -0.02947977 0.0392927 -0.015742464 0.059007134
000080 02 cf 2d 3b 5f af 39 bd 4f da 17 bc c9 17 30 3d
       0.0026521091 -0.045333263 -0.009268357 0.042991433
000090 44 da df bc d8 3d dd 3c 5a db 20 3c a5 48 fe bb
       -0.027325757 0.027007028 0.0098179225 -0.0077601247
0000a0 06 ce ee bc 50 00 ef bc 5c b0 67 bd c7 6c 90 bc
       -0.029150974 -0.029174954 -0.056564674 -0.017629994
0000b0 14 00 fb 3c f4 88 a0 3c 19 b4 d6 3c 1d d5 0c 3c
       0.030639686 0.019596554 0.026208924 0.008595732
0000c0 33 e4 2c bd 60 44 f1 bc 30 34 6f 3a 6d 11 16 bd
       -0.042209815 -0.029451549 0.0009124903 -0.036637712
0000d0 f4 75 d2 3c bc 43 3b 3d 1e c5 8c 3d 2b 14 cc ba
       0.02569101 0.045718893 0.068735346 -0.0015569975
0000e0 57 29 90 3c 30 68 48 bd ea 9b a6 bc e8 00 a6 bc
       0.017597837 -0.048927486 -0.020338017 -0.020264104
0000f0 7d d7 62 bc 58 ad 2c 3d b8 12 1b bd 80 ca d5 bc
       -0.013845322 0.0421575 -0.03785965 -0.026097536
000100 4d 2d bc 3c 81 70 d1 bc c0 f0 42 bb a7 be 9a bc
       0.02297082 -0.025566341 -0.002974555 -0.018889738
000110 c4 24 ff 3c f0 e7 2e bd 9d 02 e1 3c 32 0f e8 bc
       0.03114546 -0.04270166 0.027467066 -0.028327558
000120 23 d5 2a 3d 65 1d 0f bd ff 34 12 3d 46 5d d8 3c
       0.04170717 -0.034940142 0.035695072 0.026411664
000130 4d 4c e2 3c e0 2a 0a bc be f0 89 3c c2 d2 01 3d
       0.027624274 -0.008433074 0.016838428 0.031695135
000140 b6 17 45 3d b8 79 0a bd d2 0c 5e bd b4 77 bc bb
       0.048118316 -0.033807486 -0.054211445 -0.0057515744
000150 61 f5 3a 3d ca 0a ac 3c 18 d3 e3 3c 1b 03 44 3d
       0.045644168 0.021001238 0.027810618 0.047854524
000160 06 ad 16 3d f2 8f ee bc 2b 94 e0 3c db 5c 5a bd
       0.0367861 -0.029121373 0.027414402 -0.05331121
000170 5a 08 c3 bc 84 b6 d3 bc 71 60 23 bd e0 de be bc
       -0.023807693 -0.025843866 -0.039886896 -0.023299634
000180 17 7b c6 bc 12 4d 6d bc 97 b7 7e 3b 98 03 95 bc
       -0.024228616 -0.014483707 0.0038866752 -0.01819019
000190 f4 b9 2e bd 16 4c 26 bd d8 58 1b bd 51 15 16 bd
       -0.042657807 -0.040599905 -0.037926525 -0.036641423
0001a0 4e f3 8e bc aa eb d0 bc 7a b2 f2 bc 0c e2 e1 3b
       -0.017450001 -0.025502998 -0.02962612 0.006893402
0001b0 cf 76 0f bd 41 48 4f bd ba d4 8d bc 94 5d 05 3d
       -0.035025414 -0.050606016 -0.01731335 0.032559946
0001c0 73 c6 38 3d 46 03 29 3d 0b 4f da 3c 7f 52 49 3b
       0.04511113 0.041262887 0.026649019 0.0030719338
0001d0 94 36 cd bc ed 5c 6b 3c b4 2a b0 3c f1 3a f1 bb
       -0.025050439 0.014365417 0.021504737 -0.0073617627
0001e0 20 1b 70 bb 7d 9f fc 3c cd e9 26 bd 72 8a 54 3d
       -0.0036637262 0.030837769 -0.040750314 0.051889844
0001f0 f3 ac 26 3d 80 3a d8 3c 8c a4 c0 3c 28 4a 13 bd
       0.04069228 0.026395082 0.023515962 -0.035959393
000200 f8 9d 92 3c de d8 6a 3c 87 47 d7 3c 81 38 d6 3c
       0.017897591 0.014333932 0.026279224 0.02614999
000210 38 61 18 3d 43 a2 c6 bc c9 ee 08 3c 12 8b 01 3d
       0.03720209 -0.024247294 0.008357712 0.03162677
000220 8b b3 8a 3a 5a ad de bc e6 3f 18 bc 74 cc 37 3d
       0.0010582072 -0.02718227 -0.009292578 0.044872716
000230 d2 38 f0 ba 9d 26 06 bd c4 6c ef 3c e6 46 eb bc
       -0.0018327481 -0.03275167 0.029226668 -0.02872033
000240 d7 69 be bc b4 5f fa 3c f5 28 2a 3c dc 98 f9 3c
       -0.023243828 0.030563213 0.0103857415 0.030468397
000250 6b 59 cb bc f6 9c ba 3c ec b9 18 bc 87 a8 2a 3d
       -0.024822911 0.022779923 -0.009321671 0.041664626
000260 9d 40 0d bd fb 9a 19 3d f8 42 e1 3c 76 65 37 bd
       -0.03448545 0.037501317 0.027497754 -0.044774495
000270 f3 e3 ab 3c 64 ad f4 bc bf 26 ba 3c 69 6c 4b bd
       0.020982718 -0.029867835 0.022723554 -0.049663935
000280 d2 d0 87 3c 61 0a 5a 3d ae ca 33 3b e8 56 39 bd
       0.016579065 0.053232554 0.002743404 -0.045248896
000290 2e b0 22 3d df 46 96 bc fa a4 b5 bc 0e 37 b0 3c
       0.0397188 -0.01834434 -0.022173394 0.021510627
0002a0 ed 0c c9 3c e2 22 24 3d 0d 5a 34 3d 9c 38 19 3b
       0.024542296 0.04007233 0.04403119 0.002337969
0002b0 dd 4c 3f bd 3c 34 91 bc 08 07 88 bc ed 29 4b bc
       -0.046704162 -0.017725103 -0.016604915 -0.012400133
0002c0 db 90 07 3d d0 75 2d 3c 94 82 9d 3c 42 15 34 3d
       0.03309713 0.010587171 0.019227304 0.043965586
0002d0 6d 91 11 bd 76 2e e4 bc db 96 42 bd f1 31 42 3c
       -0.03553908 -0.027854186 -0.04750715 0.011852727
0002e0 43 ba fd bc 99 05 1b 3d 87 89 c2 3c ee 9b 0a 3d
       -0.030972606 0.037847135 0.023747219 0.033840112
0002f0 3a 18 9f 3c 5b e3 26 bd b7 9a 13 3d c4 23 62 3d
       0.019420732 -0.040744167 0.03603622 0.05520989
000300 be 64 05 bd f0 78 9e ba af 6f 24 ba 0c d4 ca 3c
       -0.03256678 -0.0012090486 -0.00062727457 0.024759315
000310 3b 17 a8 bc d5 b0 02 3d e6 33 1b bd 8a b8 41 3d
       -0.02051889 0.03190692 -0.03789129 0.04729513
000320 d9 ab 53 bd c9 c0 6a 3c 6a 69 02 bd 30 c8 34 bd
       -0.05167756 0.01432819 -0.031838812 -0.044136226
000330 a8 1d 2e bd 02 05 3f 3c af 03 80 bc c2 cb b4 bc
       -0.04250875 0.011658909 -0.015626756 -0.022069816
000340 4f 03 0c bd 32 45 25 3d 9d 90 84 3d 2a a4 d9 bb
       -0.034182843 0.040349193 0.06472895 -0.0066418843
000350 18 48 43 bd 97 6c ea bc 1d 5e 54 bc 7e 29 30 bd
       -0.047676176 -0.028616233 -0.0129618915 -0.04300832
000360 6e 55 cb bc d0 e4 f8 3c 28 fa 8b bc 82 c8 90 3c
       -0.02482101 0.030382544 -0.017087057 0.017673735
000370 29 ee 8d 3c a6 1d 76 3c 0b 11 00 3d dc d9 c5 3c
       0.017325478 0.015021717 0.031266253 0.024151735
000380 b7 b1 05 3d 5d 73 ba 3c d2 36 9c 3c 50 56 4e bb
       0.032640185 0.022760088 0.01906911 -0.0031484552
000390 47 1a 20 3d 28 89 fb 3c 0c 0c 81 3d ce 1b 10 3d
       0.03908756 0.03070505 0.06301126 0.035182767
0003a0 39 38 9e 3c 7f 34 ce 3c a0 bd a5 3c 6e 2d dd 39
       0.019313918 0.025171516 0.020232022 0.00042186253
0003b0 67 cc 06 3d 21 5c 4d 3d 27 44 d8 3c c6 a9 21 bd
       0.032909777 0.05013669 0.026399685 -0.03946855
0003c0 1b 56 fe bc ef 34 1b bd 38 0a 1c bd e9 b2 dc bb
       -0.031046918 -0.03789228 -0.038095683 -0.006735195
0003d0 9d c8 20 3d 06 b2 c7 bc 29 88 a6 bc ab f9 cc 3c
       0.03925382 -0.02437688 -0.020328598 0.025021395
0003e0 56 bb 70 3c c0 f2 77 bc 5e 59 a8 3c cc 06 1f bd
       0.014693102 -0.01513356 0.020550426 -0.03882484
0003f0 26 b7 25 bd d8 2b 69 bd 9a 07 36 bd ed 9d 6f 3b
       -0.040457867 -0.05692658 -0.044440843 0.0036562637

discrete_action_output_shape f4 [1, 3]
000000 00 00 40 40 00 00 40 40 00 00 00 40
       3.0 3.0 2.0

network_body._body_endoder.seq_layers.0.bias f4 [128]
000000 73 b5 ff bb 1b d2 73 bc 4f 26 5a 3c a1 bc 9d bb
       -0.007803613 -0.014881636 0.013314798 -0.004813746
000010 ef ed ed bb 0d fa 7f bc 07 1a 77 bc c7 fd 2c 3b
       -0.00726103 -0.015623582 -0.015081889 0.002639638
000020 ec 3f 27 3b 32 95 a3 b9 57 f0 e8 3b a1 07 ec 3b
       0.0025520278 -0.00031200942 0.007108729 0.007203058
000030 b9 8f 23 bc d7 da 8d 39 0f 6d 24 bc 6d 94 2e bc
       -0.009982997 0.00027056664 -0.010035767 -0.010655505
000040 32 16 47 bc 1e 4e db 3b 9f cd df 3b b4 1f 88 3b
       -0.012151288 0.006692662 0.006829932 0.00415417
000050 ae 26 a8 ba 35 aa 76 bb bc 5a 08 bc 69 3d 13 bc
       -0.001282891 -0.0037638072 -0.008322414 -0.008986809
000060 03 8e b3 3a 40 78 5b bc 8d 89 bd 3c 03 b4 21 bc
       0.0013698939 -0.013395369 0.023136878 -0.009869578
000070 aa 53 d0 3b 3e 26 f1 3b 8f 99 5a bc 31 28 f1 bc
       0.00635763 0.007359295 -0.013342275 -0.02943811
000080 ae 2b bf 3b 43 22 05 bc e2 5b 25 bc b0 02 3e 3c
       0.0058340644 -0.008125844 -0.010092707 0.01159732
000090 ce 9a 1d bc ed 2c 93 bb a4 12 17 3c d2 2a 1c 3b
       -0.009619428 -0.0044914396 0.009220753 0.0023829234
0000a0 ff 81 32 3a 9a 36 0c 3a 70 ad c7 3b ae f9 82 bb
       0.0006809532 0.00053487124 0.0060936734 -0.0039970493
0000b0 05 a5 43 bc 79 b4 ba ba 3d 54 86 bb 15 93 06 bc
       -0.011941199 -0.0014244459 -0.0040993975 -0.008213778
0000c0 d5 21 2b bc 82 0f 89 bc 51 05 3e ba 39 cc 22 3c
       -0.010445078 -0.016731028 -0.0007248717 0.009936386
0000d0 08 e8 10 ba d7 56 24 bc e4 1e e5 3b 39 10 d3 3b
       -0.00055277394 -0.01003047 0.006992208 0.006441143
0000e0 f6 87 05 bc 5b 99 a1 bb 0e f3 24 bc ba 0c 2a bb
       -0.008150091 -0.0049316115 -0.010067714 -0.0025947527
0000f0 43 1d 10 bb fb d7 74 bc dd 6e 94 bb 05 02 07 bc
       -0.0021990098 -0.014944072 -0.0045298175 -0.008240228
000100 d8 04 70 3b 09 d2 82 bb 1a de 83 bb d6 72 ca bb
       0.003662398 -0.0039923233 -0.0040242793 -0.0061782403
000110 16 6b 71 bb 70 ec 22 37 23 21 1a ba 7e 2d da 3a
       -0.003683751 9.711002e-06 -0.00058795715 0.0016645638
000120 6c ed 38 bc 89 dd 99 bb 75 fb 2f bc 5d 9a 4b bc
       -0.011287075 -0.0046955985 -0.010741104 -0.01242694
000130 b6 ca 86 bc 84 5b ee bb 1b 0e 94 39 91 f0 35 bc
       -0.016454082 -0.007274093 0.0002823927 -0.011104719
000140 10 3c 0e 3c 4d 04 9b bc f3 7f 3b 3a c5 63 ee 3b
       0.008681312 -0.01892295 0.000715255 0.007275077
000150 5a 38 64 bc 73 f1 0f 3c 7f 23 97 bb 20 4c 3a 3c
       -0.013929451 0.008785593 -0.0046123858 0.011370689
000160 3f 68 6b bc 26 08 83 3c 84 27 b4 bb 2c 7c 3c 3b
       -0.014368116 0.015995096 -0.0054978747 0.0028760536
000170 48 dc d8 3a 30 20 67 bc 0c ed d5 3a cc 2f 07 bc
       0.0016545141 -0.014106795 0.0016321256 -0.008251142
000180 25 69 90 bc 77 7b b1 3b 45 8f 3a 3b 8a c9 36 3b
       -0.017628262 0.0054163295 0.0028466743 0.0027891123
000190 a0 74 e3 3a a1 d8 96 bc ac f3 07 3b cc eb 73 bc
       0.0017353483 -0.018413844 0.0020744605 -0.014887761
0001a0 e3 b2 7b bc 48 70 77 3a 0e a8 90 bb 21 0b 83 bc
       -0.015362474 0.00094390335 -0.004414565 -0.015996518
0001b0 02 b8 74 bb 2a 6e 78 bc 04 33 63 bc 05 15 04 3b
       -0.0037341123 -0.015162984 -0.013867144 0.002015413
0001c0 db 95 85 bc cf db a0 bc 41 4c 98 bc 89 d0 9b ba
       -0.016306808 -0.019636063 -0.018591048 -0.001188771
0001d0 7f cf 64 bc f5 07 95 bb 8c d9 ca bb 0f 15 ca 3c
       -0.013965487 -0.0045480677 -0.0061904844 0.024668245
0001e0 d5 f5 26 bc ff b5 42 bc 7b 61 c7 bb ac d7 10 3c
       -0.010190447 -0.011884212 -0.0060846186 0.008840483
0001f0 27 bb 61 bb 86 5d cb ba f9 d1 8f 3c 1d ef c0 bb
       -0.0034443827 -0.0015515543 0.017556177 -0.0058878795

network_body._body_endoder.seq_layers.0.weight f4 [128, 56]
000000 50 c8 9d 3c 3e 96 4e bd d3 9e 9c 3d bd 80 9d bd
       0.019260556 -0.05043625 0.07647481 -0.076905705
000010 98 76 05 3d 9b 49 95 bd f5 72 32 3d 75 0d 53 bd
       0.032583803 -0.0728943 0.043566663 -0.051526506
000020 35 5b 25 be a2 59 03 bd b6 ab 9e be 65 a6 bb bd
       -0.16148074 -0.032067902 -0.3099038 -0.091625966
000030 f4 f8 5f bc 92 3e 0d 3e f0 9a 34 bb 29 8d 8b be
       -0.013670195 0.137934 -0.002755817 -0.27256134
000040 9a 5a 9b 3e 20 9b 59 be 92 ea c8 3e b8 e8 19 be
       0.3034256 -0.21250582 0.39241463 -0.15030181
000050 1c bc 90 be d4 7a 41 bd 48 b6 09 be 5f 57 1c 3e
       -0.28268516 -0.04723628 -0.13448441 0.15267704
000060 60 78 b8 3c 12 86 ae bd a9 31 f1 bc 53 08 80 3d
       0.022518337 -0.08521666 -0.029442625 0.06251588
000070 d8 e4 04 3e 46 f2 10 bd 5b dc f0 bd 93 4b 58 b8
       0.12977922 -0.0353873 -0.117607795 -5.1568797e-05
000080 db 21 61 3e a7 ca 1e 3c 77 e0 27 bd 42 4f 33 3e
       0.21985571 0.009691871 -0.04098555 0.17510703
000090 25 e6 f2 bb b5 a3 a3 3d 58 da 39 3c a7 ba 91 bd
       -0.0074126893 0.07990209 0.011343561 -0.07115679
0000a0 d2 1c b3 bd 9d 55 a0 be 62 8a 59 3d 51 09 d5 3d
       -0.087457314 -0.31315318 0.053110488 0.104021676
0000b0 42 4d 55 3e 96 98 e9 bd 2a 1b a0 bb 2c 31 95 bb
       0.20830253 -0.114060566 -0.0048860507 -0.004552981
0000c0 54 8a 1d be f3 b3 5d 3d 0c 6e 65 bd e0 1e cc bc
       -0.15384799 0.05412669 -0.056013152 -0.024917066
0000d0 7f e9 96 bd f1 5d db bc 19 3d b6 bc 3c 23 86 bd
       -0.073687546 -0.026778193 -0.02224593 -0.06549689
0000e0 66 68 e0 3d 32 31 93 bc 90 f2 83 3d 34 90 13 be
       0.109574124 -0.017967794 0.064427495 -0.14410478
0000f0 56 9d c5 3c 22 ac 9d ba 57 26 52 3c af 01 a1 bc
       0.024122875 -0.0012029449 0.012826524 -0.019654123
000100 b5 25 4d bd b9 26 4e be f3 2e 99 be 98 07 7b bd
       -0.05008479 -0.20131959 -0.29918632 -0.06128654
000110 52 e2 9c bd ea 54 01 3d d8 8a ee 3b 05 cc 2f be
       -0.07660355 0.03157512 0.007279735 -0.17167671
000120 03 eb d6 3c 59 fa 73 3d e5 bf 98 3c 1e 10 13 3e
       0.02623511 0.059564922 0.01864619 0.14361617
000130 03 d8 ce bc 44 2f 63 bd e8 04 06 be fb 28 1c bd
       -0.025249487 -0.055464998 -0.13087809 -0.03812502
000140 b9 2b 84 3e 82 92 ce 3d b7 f0 f0 3d a7 39 91 bd
       0.25814608 0.10086538 0.11764663 -0.070910744
000150 d3 72 87 3e 30 b7 51 bc 92 4f c0 bd e1 7a 91 bc
       0.2645479 -0.012800023 -0.09390177 -0.017758789
000160 d3 a2 f0 bd 83 c6 d7 3d 8f b9 d9 bd 65 d3 8c bd
       -0.11749806 0.1053591 -0.106310956 -0.06876258
000170 54 99 44 3d de 30 13 3e 2a cf 4f 3b 53 da 97 bd
       0.047997788 0.1437411 0.0031709173 -0.07414689
000180 18 98 4b 3e 8e 8c 93 3c 71 80 a9 bd 60 2c 88 bd
       0.19882238 0.018011358 -0.082764514 -0.06649089
000190 d4 47 19 bd 80 a5 b4 3d 1b e2 06 3e 00 8c 10 3e
       -0.037422016 0.08820629 0.1317219 0.14115906
0001a0 08 1d 14 be bd dc 63 3e 66 ce e5 bb 09 e8 19 3d
       -0.144642 0.22252174 -0.00701313 0.0375748
0001b0 16 d7 b8 bd 48 2a 82 be f6 22 70 3e 5e 89 bd bd
       -0.090253994 -0.25422883 0.23450837 -0.09254716
0001c0 f1 0d 93 bd 22 72 83 be 87 70 de bd c9 29 b3 3d
       -0.071803935 -0.25673014 -0.10861307 0.08748204
0001d0 85 43 35 3e 4f f3 79 bd ee ce 42 3e ab 29 57 bd
       0.17701538 -0.061023053 0.1902425 -0.052529972
0001e0 cf bf 6c 3e 73 c1 df bd ff 88 20 3d ed 76 b8 3d
       0.23120044 -0.109255694 0.03919315 0.09007058
0001f0 3e 03 c0 bd 85 85 59 be 19 51 9c 3d 07 86 77 bd
       -0.093756184 -0.2124234 0.07632656 -0.060430553
000200 f1 c9 7b 3e 32 7e b6 bd d8 3f b8 be 67 a1 3d 3d
       0.24588753 -0.089107886 -0.3598621 0.046296503
000210 1e 27 ea 3c 93 df 55 3d 4c ab 0c 3e 89 6a 79 3c
       0.028583106 0.05221517 0.1373722 0.015223154
000220 76 ae ff bd 51 1a ff 3c ee d1 03 bd 47 29 cb 3d
       -0.12484448 0.031140478 -0.032182626 0.099199824
000230 5f e4 05 be 38 5b 17 bd 13 c1 9d 3c 33 38 fc 3d
       -0.13075398 -0.036952227 0.019257104 0.12315407
000240 bc 57 52 be 82 93 71 3d 83 23 03 3d 4b e5 cb 3d
       -0.2054128 0.058978565 0.03201629 0.099558435
000250 e0 01 87 3d d9 04 e2 bd 34 b6 e3 3d 7e 47 ac bd
       0.065921545 -0.11036081 0.11118737 -0.084120736
000260 90 b3 c7 3d f0 92 e9 bc 6f 4f 8f 3c 73 14 65 be
       0.09751046 -0.028512448 0.017493932 -0.22371082
000270 5c c0 03 bd d3 d8 e5 bd ae 72 74 be 63 52 b0 bd
       -0.03216587 -0.112229966 -0.23871872 -0.08609464
000280 65 55 fd 3d 75 78 ae bd 8d 1d 85 be a3 f0 2d be
       0.12369803 -0.08519069 -0.25999108 -0.16986327
000290 ee 05 08 be d6 22 d7 bd db 8e 2c 3e ea 21 cb bd
       -0.13283512 -0.10504691 0.1685137 -0.09918578
0002a0 1a b1 71 3d 93 1f 9d 3e 49 50 f1 bd 04 b9 7b be
       0.059006788 0.30688152 -0.11782891 -0.24582297
0002b0 05 03 6e 3a 5c 7a 6c 3e 75 4e 35 3e 42 fc 50 3e
       0.00090794294 0.23093551 0.1770571 0.20408729
0002c0 dd f8 29 be 05 6f 84 bd 10 e3 0f bc b5 93 24 bd
       -0.1659884 -0.06466488 -0.008782163 -0.040179927
0002d0 f7 22 0b 3d 08 92 9a 3e ec 4b 86 3e 24 7c 78 3e
       0.033968892 0.30189538 0.262298 0.24266106
0002e0 fe 40 0f bd 84 05 f7 bd f3 fa 53 be c0 67 36 b6
       -0.03497409 -0.12061599 -0.20701198 -2.7180504e-06
0002f0 a3 ef f4 3c 6c b7 fa bd cb e1 f9 bd 0a 00 92 bd
       0.029899424 -0.12242016 -0.1220127 -0.07128914
000300 c6 31 9c 3d 4f d6 2a 3e 08 a5 b3 3d 5c da 2c bd
       0.07626681 0.16683315 0.087717116 -0.04220043
000310 0d 92 08 3e f1 94 cc be e6 8d 89 3d f1 36 0a bd
       0.13336964 -0.39957383 0.06716518 -0.033743802
000320 2a b7 20 be b2 78 12 3e 68 10 85 bb 4d 4f 0e 3e
       -0.15694872 0.14303854 -0.0040607937 0.13897438
000330 47 a0 c9 3d 7e b9 eb bd ea 73 0a 3d b4 6a fa bd
       0.098450236 -0.11509989 0.03380195 -0.12227383
000340 37 e7 e9 bd 55 f1 0c 3d 20 31 dc bb 11 ea 2f 3d
       -0.11421054 0.03440984 -0.0067197233 0.042947832
000350 08 83 44 3e 69 72 05 3e 18 f0 9d be 6f a2 77 bd
       0.1919061 0.13031925 -0.3084724 -0.060457643
000360 40 10 08 be 38 28 5e 3d 67 28 7b bd 1e 08 8a 3d
       -0.13287449 0.054237574 -0.061317828 0.067398295
000370 bc 35 c6 3d 24 36 32 3d ce 9e 96 3d a2 69 50 3e
       0.09678218 0.043508664 0.07354508 0.20352796
000380 49 0c cb 3e 67 f0 34 bd 30 a3 4c 3e 50 8d 83 3e
       0.3965781 -0.044174578 0.19984126 0.2569375
000390 a7 49 42 3d 35 ea 24 bc cc 87 ea bc 4e 22 26 bd
       0.04743352 -0.010065605 -0.028629206 -0.04056006
0003a0 9b ec 04 be 7b 7c 4f bc 6b db 1f bd 91 c6 db bd
       -0.12980883 -0.012663956 -0.039027613 -0.10731233
0003b0 e5 e2 37 bd c3 93 88 be 76 1c 8d bd 55 3e 03 be
       -0.044894118 -0.26675233 -0.06890194 -0.12816747
0003c0 68 07 de bb bc f2 88 3d 5c c8 23 3e fe 2e 87 bd
       -0.0067757852 0.06686923 0.159944 -0.0660076
0003d0 fc 85 45 bd 28 9c 14 3d a6 c4 f9 bd 01 19 5d bd
       -0.04822348 0.036281735 -0.12195711 -0.053978924
0003e0 4e a5 3c 3d 23 13 b1 3e 96 81 24 3e 80 e1 1f bd
       0.046056084 0.34584913 0.16065058 -0.039033413
0003f0 c4 bd 8c 3c 33 66 68 3d e0 a6 80 3e 23 35 25 3e
       0.017180331 0.05673809 0.25127316 0.16133551

network_body._body_endoder.seq_layers.2.bias f4 [128]
000000 f7 de bf 3c 97 c2 77 3c 69 3c 18 bc 8f 26 48 3c
       0.023421748 0.015122077 -0.009291747 0.012216224
000010 45 9a 1a ba 41 cf a7 bb 3f 3e 82 bc f8 db 3f bc
       -0.0005897622 -0.005121142 -0.015898822 -0.0117101595
000020 a9 45 8d bc 54 b9 b1 3a 80 15 e7 bb 7e 15 b5 bb
       -0.01724513 0.001355926 -0.0070521235 -0.0055262437
000030 91 11 bf bb 34 40 fc bb 16 28 82 bc 35 c0 bb bb
       -0.0058309515 -0.0076980833 -0.015888255 -0.0057297
000040 fe b7 b7 bb 7f cc 0a 3b 48 48 27 bc 7b c1 b7 bb
       -0.0056066504 0.0021179018 -0.010210104 -0.0056077815
000050 16 00 03 bc ef 0f d5 bb d1 2c 56 3b 48 e1 ee 3a
       -0.007995626 -0.0065021436 0.0032680521 0.0018225098
000060 9c 28 27 3c 28 e2 47 bc 4f f0 31 bc 4f dc 2a 3c
       0.010202553 -0.012199916 -0.010860517 0.010428502
000070 7d b6 b0 3a 08 5e 7d ba 80 70 74 bc df b4 e8 3b
       0.001348212 -0.0009665196 -0.0149194 0.0071016396
000080 89 08 35 bc bd e0 7a 3b 6f ce a4 b9 50 98 17 3c
       -0.011049398 0.0038280927 -0.00031434323 0.009252623
000090 33 c9 36 bb d0 af c2 ba 37 52 3e bc 86 8b 65 bc
       -0.002789092 -0.0014853422 -0.011616281 -0.014010316
0000a0 73 91 ab bc 67 db b2 bb b9 52 12 39 2d 05 d2 3c
       -0.020943379 -0.0054582837 0.00013954462 0.025637234
0000b0 89 02 f5 3a 08 03 10 bc cf 17 8a bb e8 9b 45 bc
       0.0018692772 -0.008789785 -0.004214264 -0.012061097
0000c0 e2 b1 1d bc 52 91 80 3b 06 1c 48 bc 18 71 ba bb
       -0.00962493 0.0039235735 -0.012213713 -0.0056897514
0000d0 0d 5c 40 bb 46 61 80 3a 58 18 9d 3c bd 53 aa 3b
       -0.0029351742 0.0009794615 0.019176647 0.0051979707
0000e0 70 0e 01 bc 8b 93 17 bb ae c9 83 3c 04 ef 29 3b
       -0.007876977 -0.0023128714 0.01608738 0.0025929818
0000f0 c6 3f 14 bb ee ec 8e 3b 41 da 6a bc 30 34 2d bb
       -0.002262102 0.0043617403 -0.014334262 -0.0026428811
000100 26 75 ab ba 8c a6 37 bc 89 3a 7c ba 1f ef a4 bb
       -0.0013081178 -0.011209141 -0.00096217595 -0.0050333883
000110 f6 b4 20 bc 61 4d 71 bb e2 3c 67 3b 56 18 d5 ba
       -0.009808769 -0.0036819803 0.0035284092 -0.0016257863
000120 6a 58 96 3b 20 ab 56 bc 86 4a c9 39 a4 84 3e 3b
       0.0045881765 -0.013102323 0.00038393232 0.002907076
000130 4c fc 04 3b eb f5 47 bc 9f 09 53 bc 71 1d b5 3a
       0.0020291982 -0.0122046275 -0.012880712 0.0013817978
000140 6a 87 bb 3b a7 d4 85 bc 63 c2 46 3c e7 69 ec 3b
       0.0057229297 -0.016336752 0.012131306 0.007214773
000150 ba 84 7e 3c d1 0e 34 bc aa 56 d1 bb f2 2d d1 3a
       0.015534574 -0.010989861 -0.006388505 0.0015959127
000160 7b 03 67 3b 9d 5a 29 bc 17 9a 78 ba d5 66 65 bc
       0.0035249877 -0.010336545 -0.00094834104 -0.014001568
000170 7a 7f 5a bc 10 dd 7c 3c 6a 0f d3 3b 86 23 f7 3b
       -0.013336057 0.015433565 0.0064410465 0.0075420765
000180 51 24 11 bc 8c df a4 bc 0e 6e 02 bc 38 77 43 bc
       -0.008858756 -0.020126127 -0.007960809 -0.011930279
000190 06 45 0e 3c 7b 96 50 bb 9d 97 77 3b 80 a4 d2 3b
       0.008683449 -0.0031827975 0.0037779578 0.0064283013
0001a0 63 ec 0f ba 1b fc da 3b f3 bc f1 bb 48 83 20 3c
       -0.00054902415 0.0066828853 -0.007377261 0.009796925
0001b0 df 68 fa bb a2 ca 0a 3c 71 13 c1 bb c1 9b 84 ba
       -0.007641896 0.008471163 -0.00589221 -0.0010117219
0001c0 9a 4e 9a 3b 57 7e b6 3a f8 5c 4d 3b 00 a5 88 bc
       0.004709077 0.001392315 0.0031335931 -0.01668024
0001d0 4a 2c 05 bc 02 42 f8 bb 61 c3 27 bc 0b a4 e6 ba
       -0.008128235 -0.007576228 -0.010239453 -0.0017596496
0001e0 33 ff bf 3c 63 25 80 bc 4e 81 60 bc 53 62 15 3c
       0.023437118 -0.015642827 -0.013702704 0.009117681
0001f0 2f 31 9e 3b 2d 32 31 3c 10 ad 8f 3a 3a 17 57 bc
       0.0048276405 0.0108151855 0.0010961611 -0.013128096

network_body._body_endoder.seq_layers.2.weight f4 [128, 128]
000000 f7 48 83 3d df 97 7b bd 6a ce 1f be c0 cc 23 be
       0.06410401 -0.061424132 -0.15606084 -0.15996075
000010 ca 57 7c bd 32 a5 fd bb 12 70 f8 bc ac 10 4b 3d
       -0.06160716 -0.00774064 -0.030326877 0.049576446
000020 e7 2e 02 3e 01 08 e0 bc 30 ec e5 3d f2 fd e3 bc
       0.12713204 -0.027347567 0.1122669 -0.027831051
000030 a6 ba cc 3c cf 05 11 bd ac b8 21 3c 39 04 72 bc
       0.024991345 -0.03540593 0.009870689 -0.014771515
000040 16 10 eb 3b e1 d2 a5 3d 53 2e c1 3c bf cc cc 3d
       0.0071735485 0.080968626 0.02358166 0.0999999
000050 02 7a 16 3e 95 6b 1a 3d 96 53 36 be 5f 4b c1 bd
       0.1469498 0.037700254 -0.17805323 -0.09438204
000060 0b 74 98 3b 5b 5c 83 bd f1 3d b5 bc 53 94 bd bd
       0.0046525053 -0.064141 -0.022124263 -0.09256806
000070 ae 6b 08 bd eb 86 fd bc d1 b1 00 3d d5 eb c5 bd
       -0.033305816 -0.030948123 0.03141958 -0.09664122
000080 3f 1b 3a 3e bf b1 95 bd f0 9f 8c 3d 56 b1 e4 bd
       0.18174456 -0.07309293 0.06866443 -0.11166637
000090 15 26 bc bd ef 3e d2 3d 8d 6a e7 3d 64 87 88 3d
       -0.09186951 0.1026591 0.1129962 0.06666449
0000a0 c3 04 78 3a 3f a9 fd 3c fa fe 04 3d 73 9d 78 bd
       0.0009461159 0.030964492 0.032469727 -0.06069703
0000b0 a4 a9 00 3e 05 49 6f bd 6e d5 68 bc 92 1e 97 bd
       0.12564713 -0.058419246 -0.014211042 -0.07378878
0000c0 99 e0 2b 3e e9 5f a1 bd 2a ad 62 ba 8b f5 84 bc
       0.16784896 -0.078796215 -0.0008647019 -0.016230365
0000d0 89 e8 ae 3b e7 1a 9a bc a8 68 1e 3d 29 ea 98 3c
       0.005337779 -0.018811656 0.038674027 0.018666344
0000e0 81 e6 e1 bd d9 43 94 ba 09 8c f6 bd 90 88 12 3e
       -0.11030293 -0.0011311724 -0.12038428 0.14309907
0000f0 20 17 a7 bc 79 a0 41 3c 7b 65 01 3e fa 11 ab bd
       -0.020396769 0.011818045 0.12636368 -0.08353038
000100 f2 12 c7 3b 23 9f 57 3d 66 6e eb bc aa 7a f6 3c
       0.0060752565 0.052642 -0.028739166 0.030087788
000110 b7 15 ad bb 43 56 01 3e df 1f 22 3d ee 4a b4 bd
       -0.0052821296 0.12630562 0.039581176 -0.08803354
000120 d9 cd 38 3e 74 fd 08 be bd f7 c9 3b 8f c3 83 bb
       0.18047275 -0.13377935 0.006163566 -0.004021115
000130 61 f7 0e 3d 42 31 7a 3e 86 d4 2e bd 35 d6 1b be
       0.034903888 0.24432853 -0.042683147 -0.15218432
000140 da c9 a0 bc b3 b0 53 bd 4d 08 c3 3d f0 f4 03 bd
       -0.0196275 -0.051682185 0.095230676 -0.032216012
000150 4d 4f 81 3d 57 63 93 bd 8f 79 f2 bd db c2 9d 3c
       0.063139535 -0.07196682 -0.11839592 0.019257953
000160 4d 16 31 bd f9 e5 c9 3b f6 70 68 bc 18 1f 2b 3d
       -0.04323416 0.006161448 -0.014187088 0.0417777
000170 27 cc 82 3c 2d fd 9c 3c 6f 28 ee bd 8e 9c 12 bd
       0.015966488 0.019163692 -0.11628806 -0.035793833
000180 3a 13 17 3c ab d9 9d bc 35 6e 19 3d 05 e7 2d bd
       0.009220893 -0.019268831 0.037458617 -0.042456646
000190 00 32 88 3d 41 37 ba 3d 51 91 82 3d ed 61 e5 3d
       0.06650162 0.0909257 0.06375373 0.112003185
0001a0 20 ce b2 3c e6 9e c4 3d d7 52 9a bd 36 b0 c9 3c
       0.021826804 0.0960062 -0.07535332 0.024620157
0001b0 2f 6f bf 3c f3 4b ae 3a 17 16 68 bd aa 46 e4 3c
       0.023368446 0.0013297781 -0.05666169 0.027865727
0001c0 0c f5 f1 bc 74 76 1d 3e 2f 8f 35 3c b9 05 2b bd
       -0.029535793 0.15377218 0.011081501 -0.041753504
0001d0 1f ff 09 be b8 29 1c be 88 9a 65 3d 1f 39 04 bd
       -0.13476227 -0.1525029 0.056055576 -0.032281037
0001e0 c6 12 d1 bd 6c 2f 3a bd 48 bd 6c bd 0b 1b 84 bd
       -0.10208659 -0.04545538 -0.0577977 -0.064504705
0001f0 2b aa a3 bd 0f 00 84 bd 1e 18 2b be 08 75 ae 3d
       -0.07991441 -0.06445324 -0.16708419 0.08518416
000200 3a 1e 08 be 2d c9 91 bd fb eb 04 3c 86 38 f7 bd
       -0.1329278 -0.07118449 0.008112903 -0.12071328
000210 62 1a bc 3d 63 5c 79 3d 0b 75 0c bc 59 13 05 be
       0.091847196 0.060879122 -0.008572827 -0.12995662
000220 fb 64 76 3d 19 d4 4e 3d e0 7b e0 bb c9 73 80 be
       0.060154896 0.05049524 -0.0068507046 -0.25088337
000230 0b 2b ec 3c c9 f9 3c bc 44 27 fd 3d e7 58 dd bd
       0.028829118 -0.011534163 0.12361005 -0.108079724
000240 14 f8 ae 3d 56 b8 74 3c 8d 0f 9c 3c e5 c7 1b be
       0.08543411 0.014936527 0.019050384 -0.15212972
000250 9c f0 2f 3d bf 70 0a 3d cb 79 fc 3c a2 20 99 bd
       0.042954072 0.03379893 0.030819794 -0.07476927
000260 23 5e ad 3c 94 33 98 3d ac e0 0d be cf a3 2f be
       0.021163052 0.07431713 -0.13855237 -0.17152332
000270 51 bb a5 3d 27 2a 8c ba 03 d5 36 3d 82 7c d3 39
       0.080923684 -0.0010693715 0.044636738 0.00040337822
000280 11 b4 80 3d 4e d4 80 3d d0 5c 58 3d 99 9b 94 bc
       0.06284345 0.06290494 0.052822888 -0.018140601
000290 6c 65 86 bc 34 22 a9 bc 20 35 0f bd 03 51 1b 3e
       -0.016405784 -0.020646192 -0.034962773 0.15167622
0002a0 70 09 96 3c e8 6f ec 3d 46 09 34 3e dd c3 00 3c
       0.018315047 0.11544782 0.17581663 0.007859197
0002b0 1b ed 92 bd cc 16 c7 bd 72 63 62 3c b4 af 1d 3d
       -0.071741305 -0.09721145 0.013817655 0.03849764
0002c0 44 d5 36 3c ca 18 07 3e 3c 8a 42 bd c6 69 6a 3d
       0.011159245 0.1319305 -0.04749511 0.05722978
0002d0 24 0d 46 3e 1e 1d fa 3c de 22 48 be d6 fd 9a bd
       0.1934095 0.030531462 -0.19544551 -0.075679466
0002e0 02 09 85 bd c3 7b 33 3e e3 c5 9b bd 9f 18 61 bb
       -0.06495859 0.1752768 -0.07606103 -0.003434695
0002f0 e0 6e 88 3d c5 d3 25 3d b3 07 a9 3d fb 7f 16 bd
       0.06661773 0.040485162 0.08253422 -0.036743145
000300 08 80 19 be b9 02 30 bd 64 f4 c6 3d 58 15 e7 3d
       -0.14990246 -0.042971347 0.097145826 0.11283368
000310 82 37 34 3e 0a 0c 9d bc dd 7e 20 bd af 66 a2 bc
       0.175993 -0.01917078 -0.039183486 -0.019824354
000320 bb 54 45 bd d7 ae f9 3d 44 e3 7d bd 75 1c 9f 3d
       -0.04817651 0.12191551 -0.061984316 0.077690996
000330 09 01 f9 3c 69 94 32 bd b4 50 f2 bc 0e f4 e9 bd
       0.030396001 -0.043598566 -0.029579498 -0.11423503
000340 59 f0 64 bc 38 c8 f9 3d 2b e2 b0 3d ed 39 13 be
       -0.013973319 0.12196392 0.08636888 -0.14377566
000350 61 69 80 bd 1c 62 3e bd a1 f9 42 3d a5 1f 42 be
       -0.062700994 -0.046480283 0.047601346 -0.18957384
000360 bb bf 81 be b7 f1 3f bd 50 07 a9 3d 7d 0f 84 3d
       -0.2534159 -0.046861377 0.08253348 0.06448267
000370 aa 19 3e 3b 41 22 be bd 89 7d 08 be ad f3 a2 3b
       0.0029006996 -0.09283877 -0.13329138 0.004972896
000380 5b aa 34 bc e4 81 5e bd 59 8a 9e 3d 8b eb 5c bd
       -0.011026944 -0.054323092 0.077412315 -0.05393557
000390 cb b8 9f bd 6a 2d 97 3e f1 63 c6 3c 27 3a a4 bd
       -0.07798918 0.29526836 0.024217578 -0.08018904
0003a0 43 89 99 3d df 6a c4 3d 10 8e 53 3c 33 82 b4 bd
       0.07496884 0.095906965 0.012912288 -0.08813896
0003b0 67 71 91 3d b0 18 33 bd 2e e6 43 bd 34 0d c1 bd
       0.07101708 -0.043724716 -0.04782694 -0.094263464
0003c0 82 2b f8 3d 9d dd be bd d9 38 84 bd 1f 75 c5 3c
       0.121176735 -0.09319613 -0.06456155 0.0241037
0003d0 fa 3d 8a 3d c9 4c b1 3d b6 b3 48 bd 39 17 80 be
       0.06750102 0.08657224 -0.04899951 -0.25017717
0003e0 f5 4a f8 3c e9 8d ea bd 5f 41 71 bd 59 9a d3 bd
       0.03030918 -0.114528485 -0.058900233 -0.10332174
0003f0 ae 78 09 be c5 9c 97 bd 5f 23 fd 3c 61 72 c6 bd
       -0.13424942 -0.07402948 0.030900655 -0.09689785
